Phase 2/nn_fasttext_model.pt (torch, 240423 bytes, 6 tensors)

weight f4 [256, 100]
0.30619565 -0.012833478 -0.16631608 -0.398102 -0.15879214 0.64799464 0.3843328 0.26944992
0.037359655 -0.14391007 0.11755118 -0.2770212 -0.16418135 0.19586875 -0.1512138 0.3062156
-0.033804715 -0.3097839 0.12664369 0.42289135 0.22950168 -0.068932965 -0.03432035 0.020772627
-0.051628437 0.27227545 -0.142168 0.14272167 -0.06322378 -0.27603182 0.20207322 -0.23006319
0.2104635 -0.21586119 0.05851157 0.0051538683 -0.18460187 0.07029753 0.31642592 0.062420793
0.091403805 0.21788675 -0.0023226773 -0.34816137 -0.06831584 -0.28927913 0.20269878 0.27293342
-0.2433983 0.41138744 -0.18371944 -0.008338118 -0.015170248 0.045807652 -0.0066788136 0.50797594
0.09890886 0.27222294 0.14344108 -0.11367081 0.19174115 -0.29233065 0.03784401 -0.26097065
0.25260806 0.09915425 -0.104547694 -0.16402231 -0.21930642 0.19170636 0.034636572 0.042131115
0.10191617 0.094267175 0.13063446 0.012756059 -0.4838694 -0.21081902 0.043767955 0.24547246
0.0992154 0.013500903 -0.057327084 0.051686928 -0.028537203 0.10331272 -0.015000322 -0.017494654
0.09039961 -0.020319728 -0.31257638 -0.1880932 0.1872517 -0.08609833 0.25536513 0.08828633
0.004980559 0.34894478 0.005633707 -0.041520417 0.48267406 -0.20302108 0.07564329 -0.53037226
0.14628586 -0.13702734 0.23245025 0.12645173 0.30730113 -0.3295387 -0.13016295 0.24303487
0.03643846 0.32274497 0.08876166 0.03678527 0.11157304 -0.08279233 -0.16264711 -0.0956235
0.1972614 -0.07732086 0.22427998 -0.10330711 0.033310372 0.4329657 -0.26974085 -0.002419193
-0.10100592 -0.48348793 0.38245463 0.26317164 -0.059187226 -0.20993116 -0.26400203 -0.08261398
0.08243067 0.13806938 0.28912088 -0.37340224 -0.43268842 -0.08917612 -0.08578537 -0.001291277
0.2523605 -0.010255881 0.2469785 0.06513502 -0.59120333 -0.11481515 -0.16067411 -0.49740663
-0.36423343 -0.01174317 -0.3290471 0.25678006 -0.014377777 0.06767219 0.027491411 0.07251092
0.17718169 0.2060714 0.14557885 -0.081726685 0.29317892 -0.017296253 -0.1395731 -0.079689056
0.31252533 -0.07226837 0.23368676 -0.22324176 -0.05821322 -0.08976462 0.14549923 0.16770312
0.06334219 -0.28685912 -0.029628685 -0.22676247 0.22052762 -0.16113178 0.024368232 -0.029949253
-0.089562476 -0.15274383 -0.12868 0.16094546 -0.30527943 -0.20108962 -0.20994079 0.21522811
0.43529353 -0.22030751 0.088305354 0.074574634 -0.3792872 0.27305317 0.23028432 -0.058031816
-0.006160498 -0.03878206 0.2763026 0.053449646 0.3499828 -0.04460792 0.012999465 -0.028508134
0.1921511 0.13107602 -0.040821623 -0.06182958 -0.003908018 -0.12716135 -0.22957374 -0.13751444
-0.17846106 -0.17390496 -0.08820093 -0.24514714 -0.3206531 -0.033245653 0.31852475 0.15079749
0.35803103 0.48297307 -0.00086905266 -0.09216929 0.10267229 -0.19534697 -0.18946396 -0.47803292
0.15322807 -0.13162248 0.19583926 0.118878625 -0.3385844 -0.3309485 -0.7583501 -0.30680633
0.028964791 -0.26140955 0.03935756 -0.025526272 -0.12529242 -0.13858017 -0.090162635 -0.07350269
0.093987 0.006326127 -0.13947384 -0.20363447 0.24816339 -0.18786103 -0.32189468 0.292262
00000000: adc5 9c3e 8243 52bc c34e 2abe 06d4 cbbe
00000010: 689a 22be fae2 253f 45c7 c43e 57f5 893e
00000020: 7006 193d 295d 13be acbe f03d b9d5 8dbe
00000030: 281f 28be d191 483e cad7 1abe 4bc8 9c3e
00000040: d076 0abd ff9b 9ebe e2ae 013e 3785 d83e
00000050: 7d02 6b3e ba2c 8dbd 7f93 0cbd 5b2b aa3c
00000060: 5778 53bd b067 8b3e 7d94 11be a125 123e
00000070: 787b 81bd 0b54 8dbe 48ec 4e3e af95 6bbe
00000080: be83 573e b70a 5dbe d4a9 6f3d c8e1 a83b
00000090: 4608 3dbe 27f8 8f3d 9402 a23e f2ac 7f3d
000000a0: eb31 bb3d b41d 5f3e 0f38 18bb 3542 b2be
000000b0: 2de9 8bbd 651c 94be 4590 4f3e eebd 8b3e
000000c0: 673d 79be 60a1 d23e f320 3cbe 9a9c 08bc
000000d0: a28c 78bc cea0 3b3d f3d9 dabb b60a 023f
000000e0: ba90 ca3d ce60 8b3e 38e2 123e 3ecc e8bd
000000f0: cb57 443e 5dac 95be 5202 1b3d f29d 85be
00000100: d855 813e 6211 cb3d 1a1d d6bd 77f5 27be
00000110: dd91 60be ac4e 443e 14df 0d3d ad91 2c3d
00000120: 6db9 d03d 260f c13d 0ac5 053e cafe 503c
00000130: bbbd f7be f1e0 57be 0746 333d 225d 7b3e
00000140: 7231 cb3d e432 5d3c cecf 6abd acb5 533d
00000150: dac6 e9bc 9f95 d33d e9c3 75bc f350 8fbc
00000160: 6e23 b93d 8f75 a6bc 030a a0be 819b 40be
00000170: e9be 3f3e 5254 b0bd 38bf 823e 77cf b43d
00000180: f533 a33b e4a8 b23e f69a b83b 5011 2abd
00000190: 0e21 f73e c2e4 4fbe dfea 9a3d 7ac6 07bf
000001a0: f6cb 153e e550 0cbe 7007 6e3e 907c 013e
000001b0: 9356 9d3e 4cb9 a8be 7049 05be 22de 783e
000001c0: 7f40 153d d43e a53e acc8 b53d 27ac 163d
000001d0: 6880 e43d 068f a9bd f78c 26be 41d6 c3bd
000001e0: e4fe 493e 665a 9ebd a7a9 653e ae92 d3bd
000001f0: 7570 083d aead dd3e 791b 8abe 538b 1ebb
00000200: 31dc cebd bb8b f7be 18d1 c33e 6fbe 863e
00000210: 4e6e 72bd 32f8 56be 462b 87be 8531 a9bd
00000220: 69d1 a83d 0f62 0d3e a707 943e 942e bfbe
00000230: 5689 ddbe f8a1 b6bd 3db0 afbd 1140 a9ba
00000240: 6535 813e 4808 28bc efe7 7c3e 8265 853d
00000250: 1a59 17bf 3524 ebbd c187 24be 15ac febe
00000260: ce7c babe 6d66 40bc dd78 a8be ad78 833e
00000270: c590 6bbc b897 8a3d ab35 e13c 9b80 943d
00000280: 1e6f 353e 6204 533e 9f12 153e 5260 a7bd
00000290: 8c1b 963e dfb0 8dbc 40ec 0ebe 0434 a3bd
000002a0: 5203 a03e 7001 94bd 954b 6f3e 7d99 64be
000002b0: fc70 6ebd 83d6 b7bd c0fd 143e 5eba 2b3e
000002c0: 8db9 813d 33df 92be dbb7 f2bc 6c34 68be
000002d0: fed1 613e bbff 24be e39f c73c 2358 f5bc
000002e0: 886c b7bd e168 1cbe b1c4 03be e3ce 243e
000002f0: 964d 9cbe 70ea 4dbe b8fa 56be c264 5c3e
00000300: cbde de3e 4b98 61be 70d9 b43d 96ba 983d
00000310: ef31 c2be a0cd 8b3e a7cf 6b3e c5b2 6dbd
00000320: 01de c9bb f0d9 1ebd 8977 8d3e 04ee 5a3d
00000330: f230 b33e cbb6 36bd b5fb 543c e489 e9bc
00000340: 42c3 443e cb38 063e 9334 27bd 0441 7dbd
00000350: d50e 80bb 9636 02be 6115 6bbe 96d0 0cbe
00000360: 7fbe 36be 2414 32be b0a2 b4bd da07 7bbe
00000370: a52c a4be 982c 08bd ad15 a33e a86a 1a3e
00000380: d84f b73e 3f48 f73e 23d1 63ba 41c3 bcbd
00000390: d945 d23d 0909 48be d702 42be bbc0 f4be
000003a0: d2e7 1c3e 0bc8 06be 168a 483e a376 f33d
000003b0: ef5a adbe 1572 a9be 3b23 42bf b815 9dbe
000003c0: 9247 ed3c 79d7 85be 6535 213d 791c d1bc
000003d0: a84c 00be f6e7 0dbe 30a7 b8bd 9488 96bd
000003e0: 427c c03d 664b cf3b 3bd2 0ebe 8e85 50be
000003f0: 8b1e 7e3e a45e 40be 61cf a4be 5da3 953e

bias f4 [256]
-0.23630485 0.06924834 -0.3161919 -0.19130439 -0.14844097 -0.21878327 -0.17693853 -0.20989816
-0.12735938 -0.12458834 -0.032882754 -0.2882014 0.03296795 -0.0736124 -0.057710886 -0.30010876
-0.10011697 0.0042584245 -0.15387812 -0.10912824 -0.0018102191 -0.31071883 -0.00776379 -0.06059048
-0.14708401 -0.13007449 -0.15825638 0.06828981 -0.339618 0.08260566 -0.0046234187 0.033520814
0.18320207 -0.21718611 0.12039971 -0.11390067 0.01762248 -0.43534598 -0.37348545 -0.117123134
-0.21760058 -0.42745227 -0.14897126 0.0020744617 -0.059713617 -0.043592647 -0.291335 -0.2268671
0.14471643 -0.15427998 -0.29170978 -0.33630687 -0.18663466 -0.23506968 -0.09537479 -0.10077583
-0.12810203 -0.13423589 -0.15139692 0.13995092 0.074785344 0.014408184 -0.17067048 -0.31589535
-0.18570818 -0.32702962 -0.46166655 -0.037816934 -0.10896243 -0.016138867 -0.055041175 0.057218533
-0.2433559 -0.106082164 -0.29862285 0.027102726 -0.14624654 0.14075084 -0.08323965 -0.23502897
-0.038807232 -0.23892781 0.03732325 -0.25155368 -0.010617559 -0.090019 -0.24252169 -0.039703365
-0.08822308 -0.37092263 -0.017981702 -0.10807158 0.14477226 -0.050728798 -0.42970183 -0.2471166
-0.14878136 -0.25900084 0.30604625 -0.23772402 -0.05321893 -0.14250736 -0.04997289 -0.15946317
-0.24689846 -0.112607025 -0.46584016 -0.12672521 -0.12234322 -0.027856397 -0.05654327 -0.14530362
-0.20459789 -0.03547885 -0.045713045 -0.31222117 -0.34503138 0.11135952 -0.15964898 -0.24831642
-0.03900774 -0.08251769 -0.36559638 0.026938513 0.20594564 -0.34056067 0.06485247 -0.27553076
-0.21331063 -0.2523816 -0.01313571 -0.3028879 0.14969349 -0.04513559 -0.21884301 -0.10683758
0.0023127804 -0.24518362 -0.21710204 0.046484463 0.0007012848 -0.13318506 -0.51502675 -0.45944196
0.05708512 -0.08368672 0.029759694 0.022514211 -0.023222597 -0.08133425 -0.39856634 0.2760442
-0.11793656 -0.016678084 -0.18189758 0.061706986 -0.050806735 -0.020012025 -0.19385809 -0.4309482
-0.02466142 -0.25732827 -0.084592454 -0.09059318 -0.07511017 -0.023427136 0.032707527 -0.24682476
-0.19832064 -0.15619884 -0.09790255 -0.105049744 -0.051035073 -0.091108106 -0.2607135 -0.03216095
-0.053967822 0.029628852 -0.1846989 -0.078906044 -0.06103027 -0.048937805 0.003294885 0.074049875
-0.23838049 -0.121989384 0.0630264 -0.09363241 0.055845585 -0.32027748 -0.10362328 0.026772333
-0.3949185 -0.34162325 -0.31210065 -0.1564572 -0.07579937 -0.29282787 -0.11879305 -0.37348697
-0.22170517 -0.098031424 -0.09129277 0.060013004 -0.03930802 -0.2196828 -0.23321965 0.019297231
0.02234026 0.19914977 -0.28523472 -0.343747 0.12632613 -0.16681212 -0.04563963 -0.21530087
-0.019965747 0.053309824 -0.032751363 -0.24384229 -0.009849541 -0.38631508 -0.30514163 -0.24726224
-0.17904104 -0.2923628 -0.16613324 -0.32970652 -0.38942662 -0.013731982 -0.26519072 -0.34825158
-0.16810936 -0.09653304 -0.040681746 -0.16448034 -0.32555664 -0.03286193 -0.25216752 -0.006767894
0.14045082 -0.09566971 -0.1885158 -0.07858441 -0.25786567 -0.14788726 -0.0803565 0.049903225
-0.42137635 -0.071576394 0.0944741 -0.05524168 0.055627506 -0.18845485 -0.027223216 -0.29969287
00000000: e6f9 71be 13d2 8d3d e8e3 a1be 4ce5 43be
00000010: e900 18be b908 60be 602f 35be 8bef 56be
00000020: 7f6a 02be 2c28 ffbd 11b0 06bd 228f 93be
00000030: 6709 073d 19c2 96bd 4062 6cbd dba7 99be
00000040: 200a cdbd 418a 8b3b 3a92 1dbe a07e dfbd
00000050: e044 edba 8a16 9fbe 6467 febb b92d 78bd
00000060: 319d 16be 3f32 05be f60d 22be 87db 8b3d
00000070: 69e2 adbe 282d a93d 0c80 97bb 1f4d 093d
00000080: 5399 3b3e 0966 5ebe 2094 f63d c144 e9bd
00000090: 055d 903c abe5 debe 7c39 bfbe 41de efbd
000000a0: b0d2 5ebe 06db dabe ec8b 18be b1f3 073b
000000b0: 4496 74bd 348e 32bd dc29 95be d94f 68be
000000c0: 8b30 143e 92fb 1dbe fc5a 95be 6a30 acbe
000000d0: 281d 3fbe 1bb6 70be dc53 c3bd 8f63 cebd
000000e0: 2e2d 03be 2275 09be cb07 1bbe 4b4f 0f3e
000000f0: 0f29 993d 4e10 6c3c 3ec4 2ebe 09bd a1be
00000100: 492a 3ebe 6d70 a7be 8f5f ecbe eee5 1abd
00000110: b227 dfbd a835 84bc db72 61bd fb5d 6a3d
00000120: 4a32 79be 9b41 d9bd 18e5 98be 8906 de3c
00000130: a7c1 15be fd20 103e 8d79 aabd 6fab 70be
00000140: 55f4 1ebd 7ea9 74be 44e0 183d a5cb 80be
00000150: 45f5 2dbc e25b b8bd 9b57 78be ff9f 22bd
00000160: 4dae b4bd 92e9 bdbe 5d4e 93bc a254 ddbd
00000170: 2e3f 143e 00c9 4fbd e101 dcbe 220c 7dbe
00000180: 245a 18be c29b 84be 18b2 9c3e ed6d 73be
00000190: 18fc 59bd 73ed 11be 60b0 4cbd 504a 23be
000001a0: f3d2 7cbe 839e e6bd 9a82 eebe 41c4 01be
000001b0: 158f fabd 1933 e4bc ea99 67bd 79ca 14be
000001c0: 1c82 51be 4552 11bd 9a3d 3bbd 74db 9fbe
000001d0: f4a7 b0be 7610 e43d 067b 23be a946 7ebe
000001e0: 94c6 1fbd 09ff a8bd 732f bbbe 28ae dc3c
000001f0: 6ae3 523e f85d aebe 5fd1 843d 5e12 8dbe
00000200: 1a6e 5abe 2938 81be 2937 57bc 1f14 9bbe
00000210: 4049 193e 19e0 38bd 6218 60be a9cd dabd
00000220: 0492 173b 6a11 7bbe ff4f 5ebe 7e66 3e3d
00000230: 6dd6 373a aa61 08be cbd8 03bf fa3b ebbe
00000240: 16d2 693d f163 abbd 9aca f33c b96f b83c
00000250: 513d bebc 9292 a6bd e310 ccbe aa55 8d3e
00000260: b988 f1bd 7aa0 88bc 5c43 3abe 77c0 7c3d
00000270: b91a 50bd 42f0 a3bc bc82 46be 3ea5 dcbe
00000280: bf06 cabc 88c0 83be cf3e adbd eb88 b9bd
00000290: 5cd3 99bd 44ea bfbc 54f8 053d a1bf 7cbe
000002a0: 9114 4bbe 97f2 1fbe 2281 c8bd 5224 d7bd
000002b0: 270a 51bd e396 babd 3d7c 85be 33bb 03bd
000002c0: 5d0d 5dbd 35b8 f23c b521 3dbe 7e99 a1bd
000002d0: e0fa 79bd 0273 48bd ffee 573b 76a7 973d
000002e0: 041a 74be 92d5 f9bd fc13 813d 59c2 bfbd
000002f0: 57be 643d 69fb a3be 7138 d4bd a751 db3c
00000300: c232 cabe 3ee9 aebe a8cb 9fbe 5136 20be
00000310: b33c 9bbd 89ed 95be c549 f3bd af39 bfbe
00000320: ae06 63be b3c4 c8bd b4f7 babd 32d0 753d
00000330: 7201 21bd 87f4 60be 22d1 6ebe 3a15 9e3c
00000340: ec02 b73c ebed 4b3e 490a 92be 9bff afbe
00000350: a35b 013e ccd0 2abe 9ff0 3abd d577 5cbe
00000360: 358f a3bc 675b 5a3d 4b26 06bd cbb1 79be
00000370: f85f 21bc 17cb c5be 863b 9cbe 5032 7dbe
00000380: 8956 37be 94b0 95be d51e 2abe 4bcf a8be
00000390: ed62 c7be 1bfc 60bc 14c7 87be 084e b2be
000003a0: dc24 2cbe 1db3 c5bd e7a1 26bd 896d 28be
000003b0: 5caf a6be 3b9a 06bd 1a1c 81be 36c5 ddbb
000003c0: 57d2 0f3e 7bee c3bd 490a 41be ddf0 a0bd
000003d0: f806 84be c26f 17be f391 a4bd 5367 4c3d
000003e0: a4be d7be a596 92bd a37b c13d 1a45 62bd
000003f0: abd9 633d 4ffa 40be 3903 dfbc 5871 99be

weight f4 [128, 256]
-0.42541328 -0.015206523 0.28552887 -0.11229062 0.024604091 0.0815666 0.4095253 0.09065658
-0.6179306 0.23023611 -0.53616077 0.34236592 0.28231603 -0.05293646 -0.22414866 -0.2225748
-0.3578015 0.057946097 -0.065781295 -0.5538434 -0.22824314 -0.3548433 -0.3207392 0.084212
-0.3679173 -0.629353 -0.15326785 -0.005568259 0.19592437 0.21257551 -0.56384665 -0.11906232
0.12679163 0.2783093 -0.052262586 -0.34853244 -0.26770943 -0.37033907 -0.13935398 -0.026499057
-0.27633208 -0.2196881 -0.06468608 -0.24552567 0.3976684 0.05824575 -0.18664058 0.22862121
-0.09389707 -0.038750853 0.5844597 -0.007862186 -0.38290554 -0.29151508 -0.14102839 -0.34091175
-0.18845722 0.31744897 0.06856143 -0.12403676 0.34164762 -0.46408406 -0.08565598 -0.3368894
-0.07943043 -0.14881122 0.20461872 -0.36008453 -0.34019688 -0.4386578 -0.026989635 0.043978818
0.20658532 -0.2413392 0.091377795 0.24071604 0.20273536 -0.42602393 -0.69427204 -0.32772845
-0.25784692 0.039598916 -0.40760767 -0.11122159 0.10933484 0.24465813 -0.018424336 -0.42780727
-0.42178792 0.095510975 -0.08075469 -0.013222023 -0.0676716 -0.25009182 -0.14949578 0.28082317
-0.20509738 0.12609729 0.30113584 -0.56035364 0.13510296 0.16029745 0.58279365 0.3070529
-0.56586623 -0.3006356 -0.25743875 -0.2158731 -0.28582755 -0.12117384 -0.24137576 0.17936184
0.2747354 -0.12152288 -0.5617565 -0.26933774 0.07124336 -0.019160494 -0.071633995 -0.2921755
-0.2995418 0.12569903 -0.38550788 -0.40524438 -0.7532337 -0.16194628 -0.23664616 -0.050200753
-0.5740303 -0.13000332 0.3373288 -0.17088464 0.3516372 -0.3199257 0.037227925 -0.58010864
-0.017424516 -0.055892773 -0.15692496 -0.25265518 -0.41994506 -0.31756675 -0.20136568 0.14186838
-0.34523812 0.08169065 -0.5858033 -0.022245418 0.2778648 0.16455683 0.1886094 0.27753586
-0.23457204 -0.09795688 0.23561409 -0.2657988 0.019455237 -0.3636299 -0.24125613 -0.11136608
0.119715355 -0.3124618 -0.50565565 -0.28043926 -0.23007844 0.025996177 -0.36976075 -0.4106115
0.04305847 -0.19153024 -0.035660945 -0.0866587 0.3368972 -0.13509792 -0.3300842 -0.24752904
0.023003267 -0.25676343 -0.036384 -0.2962361 -0.001191353 0.16037734 -0.08304706 -0.32853624
-0.1529235 -0.25133327 -0.17366801 -0.0014791243 -0.26830786 -0.39566222 -0.066630356 0.17906888
-0.11057648 0.29054543 -0.22319907 -0.20837723 0.32976887 0.21190937 0.1002758 0.19149466
0.25108212 -0.09794784 -0.550278 -0.69226545 0.040769257 -0.1692987 0.21520825 -0.45805246
0.2811826 0.15183759 0.035464857 0.33217195 -0.38056466 -0.1457584 -0.11067245 -0.11836081
0.06059756 -0.69850904 -0.65502775 -0.16780801 -0.54010594 -0.18478997 -0.29062837 -0.20990942
-0.11210665 -0.07792609 -0.44097173 -0.44170687 0.23000942 -0.12960005 -0.14251578 -0.33483604
-0.4674529 -0.30729243 0.08489801 -0.12406734 -0.02705239 -0.26763105 -0.29244062 0.06500897
0.026345735 -0.124745235 -0.6679958 -0.21277066 0.05506432 -0.11753729 0.2367422 -0.044936895
0.37480116 0.21404783 0.29893777 0.029987345 -0.48253125 -0.1062652 -0.35892385 -0.040483918
00000000: c5cf d9be c824 79bc d730 923e a0f8 e5bd
00000010: 858e c93c 640c a73d 4dad d13e 28aa b93d
00000020: b330 1ebf 04c3 6b3e d541 09bf 964a af3e
00000030: ba8b 903e e7d3 58bd 3a87 65be a6ea 63be
00000040: c231 b7be e358 6d3d 58b8 86bd aec8 0dbf
00000050: 92b8 69be 05ae b5be ee37 a4be 5777 ac3d
00000060: a85f bcbe 471d 21bf 3ff2 1cbe f175 b6bb
00000070: 66a0 483e 65ad 593e 4158 10bf f2d6 f3bd
00000080: aad5 013e 8e7e 8e3e 4b11 56bd d872 b2be
00000090: 3611 89be 159d bdbe cfb2 0ebe 8d14 d9bc
000000a0: 667b 8dbe ebf5 60be 237a 84bd 156b 7bbe
000000b0: 319b cb3e 1893 6e3d b51e 3fbe ae1b 6a3e
000000c0: 1b4d c0bd 37b9 1ebd 279f 153f 66d0 00bc
000000d0: 320c c4be 7741 95be bf69 10be fc8b aebe
000000e0: eefa 40be ac88 a23e ef69 8c3d fc06 febd
000000f0: 70ec ae3e 6d9c edbe 676c afbd c47c acbe
00000100: 6cac a2bd f861 18be 9287 513e 005d b8be
00000110: 492e aebe c197 e0be 5e19 ddbc 2223 343d
00000120: 1a8b 533e a021 77be 4824 bb3d 447e 763e
00000130: dc99 4f3e cf1f dabe d0bb 31bf 06cc a7be
00000140: 8304 84be 7932 223d f4b1 d0be 25c8 e3bd
00000150: f2ea df3d a987 7a3e a2ee 96bc 8e09 dbbe
00000160: 96f4 d7be 429b c33d b762 a5bd 2fa1 58bc
00000170: 6897 8abd 090c 80be 6c15 19be 0ec8 8f3e
00000180: 0c05 52be a61f 013e 7a2e 9a3e 5673 0fbf
00000190: 6e58 0a3e 0425 243e f731 153f 0a36 9d3e
000001a0: 9cdc 10bf e9ec 99be 03cf 83be d70d 5dbe
000001b0: fd57 92be fd29 f8bd 352b 77be a1aa 373e
000001c0: 1eaa 8c3e fde0 f8bd 46cf 0fbf a3e6 89be
000001d0: 0ae8 913d 78f6 9cbc d8b4 92bd 0798 95be
000001e0: 8b5d 99be 3fb7 003e 4a61 c5be 317c cfbe
000001f0: ecd3 40bf 3fd5 25be 5f53 72be 4e9f 4dbd
00000200: a6f3 12bf 971f 05be 5cb6 ac3e 62fc 2ebe
00000210: cb09 b43e 4dcd a3be 4f7c 183d 0082 14bf
00000220: dcbd 8ebc d2ef 64bd f0b0 20be 055c 81be
00000230: 0a03 d7be 1c98 a2be ce32 4ebe f245 113e
00000240: 0dc3 b0be 6d4d a73d 34f7 15bf 063c b6bc
00000250: 4c44 8e3e 9681 283e d322 413e 2e19 8e3e
00000260: a733 70be 9e9d c8bd d244 713e c816 88be
00000270: 9760 9f3c b32d babe d90b 77be e613 e4bd
00000280: 532d f53d fefa 9fbe a672 01bf bc95 8fbe
00000290: af99 6bbe eff5 d43c 4851 bdbe ac3b d2be
000002a0: 145e 303d 8120 44be 3611 12bd 1e7a b1bd
000002b0: ca7d ac3e 1c57 0abe cc00 a9be 4178 7dbe
000002c0: 5971 bc3c 7f76 83be 6407 15bd 42ac 97be
000002d0: 2c27 9cba f539 243e 9414 aabd e735 a8be
000002e0: fa97 1cbe c1ae 80be 07d6 31be 2ddf c1ba
000002f0: a65f 89be 3d94 cabe 7f75 88bd d55d 373e
00000300: ec75 e2bd 5fc2 943e 4c8e 64be d760 55be
00000310: 77d7 a83e c5fe 583e 665d cd3d 2d17 443e
00000320: d68d 803e e198 c8bd 05df 0cbf 4f38 31bf
00000330: aafd 263d a35c 2dbe 8d5f 5c3e da85 eabe
00000340: 2af7 8f3e 507b 1b3e 9943 113d 7112 aa3e
00000350: 5fd9 c2be b141 15be 3da8 e2bd 2767 f2bd
00000360: 2635 783d 7dd1 32bf e6af 27bf ddd5 2bbe
00000370: 6244 0abf 9539 3dbe 3ecd 94be 7ff2 56be
00000380: 2c98 e5bd b797 9fbd 0cc7 e1be 6727 e2be
00000390: 9787 6b3e e0b5 04be a8ef 11be a16f abbe
000003a0: fd55 efbe 6f55 9dbe 02df ad3d 0417 febd
000003b0: f99c ddbc f006 89be c7ba 95be 6c23 853d
000003c0: 03d3 d73c 6e7a ffbd c601 2bbf 8de0 59be
000003d0: 208b 613d 64b7 f0bd 8c6c 723e c00f 38bd
000003e0: f0e5 bf3e 5b2f 5b3e 5f0e 993e 05a8 f53c
000003f0: 560e f7be 92a1 d9bd dec4 b7be 77d2 25bd

bias f4 [128]
0.41014126 -0.039649308 0.07653485 0.18182446 0.12148267 0.17503805 0.14964363 0.2287346
0.14764369 0.2533098 0.0333894 0.027010722 0.10953762 -0.14895251 0.16113026 0.04150754
0.06526939 -0.09452758 0.19004208 0.06159073 -0.021334052 0.051570386 0.09183521 -0.11506151
0.04043951 -0.11293164 0.26135293 0.037841883 0.25315663 0.1528473 -0.019206226 0.17644584
0.19293356 0.0017799982 0.12358334 -0.048781924 0.14776552 0.30611432 0.035891056 0.3250656
0.2908729 0.009492315 0.23926978 0.37139565 0.054710902 0.26599783 0.07287774 0.06786781
-0.04826982 0.18348156 0.1769775 0.13491338 0.25340065 0.32432145 -0.29514414 0.17119122
0.15957434 0.3127318 0.0014722401 0.05841046 0.3531097 0.3244926 0.05439575 -0.14371035
0.028077716 0.29812977 0.070933595 0.08584097 0.42551634 0.0915609 0.0027191984 0.2292964
0.23256882 0.34067708 0.24475195 0.1599538 0.105619684 0.23517714 0.18343773 0.22352402
0.33178475 0.1597835 0.08204868 0.03335127 0.08300129 0.009413344 -0.2457236 -0.06570297
0.21500517 0.21259178 0.24672386 0.17112234 0.4265954 0.022790397 0.05376327 0.07558419
0.16741204 0.011709304 0.10601579 0.11467397 0.39730558 0.11460973 -0.27638534 0.20394443
-0.09169423 0.20599884 0.31013265 0.12003756 0.06701136 0.065319896 0.20416 0.08219227
0.17533489 0.20538287 0.17298405 0.09746032 0.33314392 0.040361978 0.20463112 0.10959601
0.34525797 -0.18914866 0.23016329 0.08584179 0.14763068 0.18176948 -0.06556954 -0.04573117
00000000: 09fe d13e 5067 22bd 4ebe 9c3d 3130 3a3e
00000010: e8cb f83d 2d3d 333e 2e3c 193e 6739 6a3e
00000020: e82f 173e d2b1 813e 53c3 083d 9745 dd3c
00000030: 4255 e03d 0287 18be 55ff 243e cf03 2a3d
00000040: f5ab 853d ad97 c1bd 649a 423e 9046 7c3d
00000050: c0c4 aebc 783b 533d 1914 bc3d 5ea5 ebbd
00000060: e6a3 253d b448 e7bd 0dd0 853e 1700 1b3d
00000070: bf9d 813e 0184 1c3e 6056 9dbc 38ae 343e
00000080: 6090 453e d44e e93a 4319 fd3d 8ecf 47bd
00000090: d84f 173e 04bb 9c3e 8002 133d 006f a63e
000000a0: 4bed 943e a885 1b3c 2303 753e 9227 be3e
000000b0: 8a18 603d de30 883e ed40 953d 47fe 8a3d
000000c0: 93b6 45bd 97e2 3b3e 9739 353e bc26 0a3e
000000d0: bbbd 813e 760d a63e 221d 97be c04c 2f3e
000000e0: 7567 233e 621e a03e 2ef8 c03a ce3f 6f3d
000000f0: cbca b43e e523 a63e 14ce 5e3d ce28 13be
00000100: 3d03 e63c 77a4 983e a245 913d 64cd af3d
00000110: 47dd d93e 4884 bb3d 9434 323b adcc 6a3e
00000120: 8526 6e3e 3a6d ae3e 41a0 7a3e eeca 233e
00000130: 224f d83d 47d2 703e 1ad7 3b3e 7be3 643e
00000140: b1df a93e 499e 233e 2309 a83d 579b 083d
00000150: 95fc a93d 6d3a 1a3c f89e 7bbe 478f 86bd
00000160: 512a 5c3e a9b1 593e 2ea5 7c3e b23a 2f3e
00000170: b66a da3e edb2 ba3c e036 5c3d e2cb 9a3d
00000180: 106e 2b3e 61d8 3f3c ce1e d93d 30da ea3d
00000190: a36b cb3e 82b8 ea3d 6182 8dbe cfd6 503e
000001a0: 2fca bbbd 5cf1 523e b5c9 9e3e 41d6 f53d
000001b0: 403d 893d 70c6 853d 520f 513e 6c54 a83d
000001c0: fd8a 333e e34f 523e bb22 313e 4799 c73d
000001d0: d791 aa3e 9a52 253d d28a 513e df73 e03d
000001e0: a7c5 b03e 30b0 41be edaf 6b3e d2cd af3d
000001f0: 7f2c 173e c721 3a3e 5349 86bd 9b50 3bbd

weight f4 [3, 128]
0.83921725 0.38213283 0.40583256 0.77767974 0.7626843 0.85004056 0.20137583 0.8006002
0.6516999 0.077171914 -0.6398602 0.20797484 0.13851333 -0.2340066 -0.76923954 0.6320097
-0.48782137 0.03965602 -0.04100172 0.45242855 -0.16173545 -0.6773447 0.04904145 0.02096454
-0.26445574 0.74284935 0.28257483 -0.6738291 -0.98666316 0.09723579 -0.83224285 -0.6192774
-0.76705337 -0.23418254 -0.49828547 -0.41472247 -0.31669852 0.19453374 0.64140266 0.40182325
0.13605824 0.5542736 -0.79059196 0.24835274 -0.4474135 -0.7554878 0.09537365 -0.48181102
0.4244285 -0.5416704 -0.19061762 0.6449146 -0.87538314 0.14330676 0.02560657 -0.11848389
-0.20438832 -0.15097997 -0.6923286 -0.48288766 0.22866854 0.11293563 -0.18581869 -0.4647209
0.026968198 0.25630724 0.28801534 0.11213368 -0.390767 -1.0057926 -0.24600048 -0.42992872
0.30576372 -0.80684936 -0.18374437 0.06262956 0.043514967 -0.57948035 -0.23727472 -0.49339375
0.12272442 -0.5558053 -0.5219938 0.4175667 0.10785371 0.21658404 0.12479837 0.31756428
0.13706402 -0.9404284 0.18357715 0.18479621 0.2991481 1.0794501 -0.0878182 -0.5045256
-0.3891846 -0.2394056 -0.53682286 -0.50411254 0.08547649 -0.10809382 -0.3945139 0.98359126
0.8757731 -0.26086038 -0.12297439 -0.20459653 0.5043359 -0.1505339 -0.36085635 -0.6203997
-0.7372134 0.17901368 0.1102037 0.7061928 -0.68117654 -0.38591203 -0.2823116 0.42843646
0.11760854 0.168929 -0.6667484 -0.36266547 -0.42959163 -0.25535882 -0.054435708 0.6657918
-0.18815619 -0.72606313 -0.50649214 0.32164386 0.20559217 0.07636895 -0.4668354 0.15607578
0.36907485 -0.64241326 0.21603128 -0.5772871 -0.2912816 0.3432581 0.14893888 -0.7673985
0.19137561 0.33842677 0.56466836 0.0056206584 0.5418561 0.1636399 -0.60395205 0.025222272
0.06647651 -0.50948983 -0.6116121 0.71203357 0.1332882 0.40791622 0.15284373 0.09049428
0.20904388 0.15325634 -0.5753728 0.2112403 0.0843609 -0.77219725 -0.53928256 0.34942487
-0.57083267 0.23773056 0.0893052 -0.503596 0.10999982 0.14939709 -0.6117447 0.4613467
0.24795043 0.29855338 0.3635875 0.29198948 -0.0013791586 -0.6441606 -0.98999965 -0.3936323
-0.3914748 -0.56245124 0.15854992 0.06455409 -0.49320215 -0.45210844 0.4091843 -0.06414426
0.21797998 -0.7072442 0.2660664 -0.29322252 0.05549574 0.30465117 0.5977448 -0.38086778
0.39724994 0.061932683 -0.37958947 0.4562484 -0.23406725 -0.11239108 -0.10137761 -0.11614941
-0.58545864 0.15267755 -0.27796358 0.34866175 -0.4142774 0.4853912 0.65311414 0.305272
-0.49651974 0.31530565 -0.31172904 -0.79636604 -0.83413184 -0.5452787 -0.09139279 0.102001056
0.039274596 0.61281544 0.29728234 0.5862478 -0.5114067 -0.20784688 -0.45520455 -0.71523607
-0.27332902 -0.37543085 0.52748096 -0.37766743 0.31967732 0.4356838 0.09779495 0.09665155
0.113587916 -0.58682775 -0.42171547 0.30414748 0.60914844 0.086611696 0.15399465 0.24113467
-0.8569001 0.41225532 0.083884016 0.115844324 -0.5582838 -0.6649283 0.3001939 -0.26696876
00000000: f1d6 563f eaa6 c33e 49c9 cf3e 0516 473f
00000010: 473f 433f 429c 593f 7735 4e3e 22f4 4c3f
00000020: ced5 263f 4f0c 9e3d e1cd 23bf 5bf7 543e
00000030: 70d6 0d3e 6d9f 6fbe e2ec 44bf 63cb 213f
00000040: b9c3 f9be 5a6e 223d 6bf1 27bd b7a4 e73e
00000050: fa9d 25be 7666 2dbf b0df 483d d4bd ab3c
00000060: be66 87be 602b 3e3f a6ad 903e 1080 2cbf
00000070: f595 7cbf 8f23 c73d de0d 55bf f788 1ebf
00000080: 9c5d 44bf 8ccd 6fbe 461f ffbe 8156 d4be
00000090: 4f26 a2be da33 473e f732 243f c7bb cd3e
000000a0: da52 0b3e e0e4 0d3f 3c64 4abf 2e50 7e3e
000000b0: 6213 e5be a667 41bf 4353 c33d efaf f6be
000000c0: b14e d93e e9aa 0abf 4431 43be 2019 253f
000000d0: 1c19 60bf 02bf 123e dfc4 d13c afa7 f2bd
000000e0: 2c4b 51be 7e9a 1abe 723c 31bf 0d3d f7be
000000f0: 1628 6a3e cc4a e73d 4147 3ebe e6ef edbe
00000100: 69ec dc3c b43a 833e bf76 933e 58a6 e53d
00000110: 9d12 c8be d0bd 80bf 8de7 7bbe 9e1f dcbe
00000120: 108d 9c3e ae8d 4ebf 7c27 3cbe ed43 803d
00000130: c03c 323d d358 14bf 25f8 72be 1b9e fcbe
00000140: f156 fb3d 4249 0ebf 63a1 05bf 4dcb d53e
00000150: 68e2 dc3d 35c8 5d3e 4a96 ff3d c997 a23e
00000160: 835a 0c3e eabf 70bf a6fb 3b3e 383b 3d3e
00000170: f129 993e 6c2b 8a3f 07da b3bd 9728 01bf
00000180: 3443 c7be be26 75be 396d 09bf 850d 01bf
00000190: 4c0e af3d 4b60 ddbd bafd c9be a3cc 7b3f
000001a0: aa32 603f 7e8f 85be ffd9 fbbd c181 51be
000001b0: 281c 013f 8f25 1abe 2ac2 b8be 84d2 1ebf
000001c0: 04ba 3cbf 5d4f 373e 7ab2 e13d 0dc9 343f
000001d0: 9661 2ebf 4396 c5be 258b 90be 065c db3e
000001e0: bfdc f03d b9fb 2c3e 06b0 2abf 4aaf b9be
000001f0: 6ff3 dbbe 64be 82be faf7 5ebd 5571 2a3f
00000200: 04ac 40be 46df 39bf 78a9 01bf 81ae a43e
00000210: c186 523e 5367 9c3d 0d05 efbe 54d2 1f3e
00000220: 61f7 bc3e 3275 24bf 4e37 5d3e 16c9 13bf
00000230: dd22 95be 87bf af3e 6f83 183e 3a74 44bf
00000240: f8f7 433e 4646 ad3e 1b8e 103f 802d b83b
00000250: 15b7 0a3f 3891 273e 9a9c 1abf f09e ce3c
00000260: d624 883d ed6d 02bf 9c92 1cbf d547 363f
00000270: b47c 083e 65da d03e 1183 1c3e 1155 b93d
00000280: 990f 563e 3bef 1c3e a24b 13bf 614f 583e
00000290: 68c5 ac3d b8ae 45bf 6c0e 0abf d1e7 b23e
000002a0: 1722 12bf a46f 733e a5e5 b63d abeb 00bf
000002b0: 9647 e13d 8dfb 183e 4d9b 1cbf a235 ec3e
000002c0: b8e6 7d3e fddb 983e 2428 ba3e a57f 953e
000002d0: e2c4 b4ba b6e7 24bf 9e70 7dbf 2c8a c9be
000002e0: 636f c8be cefc 0fbf e95a 223e ef34 843d
000002f0: fe84 fcbe c27a e7be 9b80 d13e 115e 83bd
00000300: 2536 5f3e f50d 35bf db39 883e 4321 96be
00000310: 804f 633d 3dfb 9b3e ce05 193f 1a01 c3be
00000320: 5864 cb3e 20ad 7d3d 8d59 c2be 6499 e93e
00000330: 53af 6fbe 4b2d e6bd 109f cfbd bedf edbd
00000340: 9ee0 15bf 8157 1c3e 3e51 8ebe cb83 b23e
00000350: 2b1c d4be 3285 f83e 7d32 273f 9d4c 9c3e
00000360: d637 febe be6f a13e f39a 9fbe a5de 4bbf
00000370: aa89 55bf 6397 0bbf 252c bbbd eee5 d03d
00000380: 66de 203d 79e1 1c3f 6435 983e 5614 163f
00000390: 8deb 02bf d0d5 54be 9210 e9be b619 37bf
000003a0: c8f1 8bbe 7938 c0be fe08 073f a05d c1be
000003b0: bfac a33e f211 df3e b848 c83d 3ff1 c53d
000003c0: c8a0 e83d 583a 16bf 17eb d7be 38b9 9b3e
000003d0: 27f1 1b3f 7961 b13d c6b0 1d3e 02ec 763e
000003e0: ce5d 5bbf 2113 d33e 62cb ab3d ca3f ed3d
000003f0: b0eb 0ebf be38 2abf 04b3 993e 21b0 88be

bias f4 [3]
-0.08195235 0.06776195 -0.094927706
00000000: a2d6 a7bd c7c6 8a3d 7569 c2bd
